…
04:31<00:00,  6.01s/it]Validation: 100%|â–ˆâ–ˆâ–ˆâ–ˆâ–ˆâ–ˆâ–ˆâ–ˆâ–ˆâ–ˆ| 45/45 [04:37<00:00,  6.16s/it]INFO: Processing dataset...
Found 5760 images belonging to 360 classes.
Found 1440 images belonging to 360 classes.
Model: "functional_1"
_________________________________________________________________
Layer (type)                 Output Shape              Param #   
=================================================================
input_1 (InputLayer)         [(None, 20736)]           0         
_________________________________________________________________
flatten (Flatten)            (None, 20736)             0         
_________________________________________________________________
dense (Dense)                (None, 1024)              21234688  
_________________________________________________________________
dropout (Dropout)            (None, 1024)              0         
_________________________________________________________________
dense_1 (Dense)              (None, 1024)              1049600   
_________________________________________________________________
dropout_1 (Dropout)          (None, 1024)              0         
_________________________________________________________________
dense_2 (Dense)              (None, 360)               369000    
=================================================================
Total params: 22,653,288
Trainable params: 22,653,288
Non-trainable params: 0
_________________________________________________________________
Step 1: 	 loss = 82.7318 	 acc = 0.0000 	 (7.28 seconds/step)
Step 2: 	 loss = 82.6740 	 acc = 0.0000 	 (5.87 seconds/step)
Step 3: 	 loss = 82.7436 	 acc = 0.0000 	 (5.86 seconds/step)
…
